CartPole/trained.model (torch_old, 70777 bytes, 6 tensors)

layer_1.weight f4 [128, 4]
-0.22064689 -0.50028634 0.31548756 0.22394311 -0.17780626 0.18284106 0.28454292 0.015243379
0.48331922 0.06764141 -0.07798115 -0.5166537 -0.17375778 0.48315677 -0.34860924 0.24645141
-0.19590393 0.50454646 -0.07828874 -0.20090643 -0.112443104 0.32440236 -0.23790431 0.031152392
-0.28932935 0.41631222 -0.34981778 0.020934172 -0.12107986 0.0445182 -0.4191181 0.10469224
0.08633803 -0.38705277 0.3108767 0.33406165 0.27759665 -0.4184996 0.26814288 -0.53652704
-0.24346636 0.42435583 -0.25478482 -0.35695112 -0.28733197 -0.13050881 -0.0053347205 -0.03169902
-0.00057309715 -0.14761889 -0.39151022 -0.42329484 -0.3235044 -0.021389045 -0.3039737 0.5124425
0.14951943 0.32741114 -0.30817467 0.43739587 0.27445823 0.25743392 0.13023977 -0.11112684
-0.08746117 -0.18361387 0.33244634 -0.12196946 -0.44852436 -0.43242583 0.50158393 -0.079190224
0.20159233 -0.391044 0.32019812 0.057053596 -0.13704467 0.34668636 0.0619313 -0.31329933
0.30278146 0.047110606 -0.1880913 0.16309112 -0.43843636 0.25109002 -0.19010894 0.39141047
-0.111317165 0.32069176 0.4851922 0.048304852 0.29229286 0.12848486 -0.5726722 -0.49974078
0.23527335 -0.11370295 -0.4291924 -0.22882868 -0.2557821 -0.13952573 0.41221377 -0.15172534
0.29285175 -0.14740627 -0.069383964 0.3877562 -0.23731817 -0.47719255 -0.53807545 -0.18004422
0.24206352 0.04469707 -0.4814818 -0.28629625 -0.05779154 -0.38313663 -0.32456166 -0.23375715
0.20891424 0.18816757 0.2589132 -0.50046873 -0.10955144 -0.3595309 0.18547049 0.17378922
-0.47074792 -0.09072186 -0.47168553 -0.056524098 -0.019603038 0.037380334 -0.07502223 0.3885331
0.46670407 0.09596994 0.26295668 0.08471805 0.156549 0.0056363624 0.011047831 -0.0012496593
-0.0024829523 -0.07234379 0.3446459 -0.013110064 -0.17949301 0.35998106 0.55219215 0.36482933
0.115550995 0.048192285 0.15654312 -0.0104628 -0.19108963 0.49921137 0.11092398 -0.27565297
0.13276355 -0.22518161 0.3284677 -0.43855914 0.13911039 0.054651573 -0.49188408 -0.18674657
0.23343603 -0.34438992 -0.2878991 0.3937674 -0.42469513 0.09801051 -0.25615135 0.02192297
-0.3416189 -0.38830155 -0.34130356 -0.35009697 -0.028254427 0.013900857 0.28284466 0.17650826
0.4499519 0.042099915 -0.19353247 -0.3367032 -0.4095283 -0.47052154 -0.28288066 -0.36982676
0.19644973 0.43265802 -0.33860865 -0.036236558 0.18990277 -0.45824185 0.12761448 0.08154534
-0.10682088 0.3361985 0.41395432 0.13976556 0.26709405 0.161481 -0.10732599 0.33659688
0.0265916 0.052443735 0.2385744 -0.09761016 -0.1507779 -0.0090720225 -0.27699745 -0.015446077
0.14169367 -0.21275482 0.026201079 -0.212295 -0.43109822 0.34734967 -0.3388424 -0.5272709
0.037178025 -0.2517916 -0.49669075 -0.36903214 -0.16689605 -0.016861329 -0.013120519 0.43214774
0.34387583 -0.34671435 -0.319483 -0.40681186 0.16158533 -0.23790814 -0.13093808 -0.10512329
-0.09856443 -0.028077943 0.28154203 -0.05629462 0.26819745 0.48559144 -0.06892801 0.22586155
-0.2779023 -0.026512 0.5039342 0.34280938 0.28438863 -0.09165382 0.18979709 -0.07692635
00000000: 42f1 61be c412 00bf 9687 a13e 5851 653e
00000010: d812 36be b03a 3b3e 9caf 913e 5ebf 793c
00000020: 9e75 f73e 9487 8a3d 95b4 9fbd 6b43 04bf
00000030: 8fed 31be 5360 f73e e97c b2be c25d 7c3e
00000040: 0a9b 48be f529 013f d955 a0bd 6aba 4dbe
00000050: 9248 e6bd 1118 a63e 309d 73be 4d33 ff3c
00000060: fa22 94be e026 d53e 511b b3be 247e ab3c
00000070: b8f8 f7bd b758 363d a696 d6be e368 d63d
00000080: fed1 b03d c82b c6be 3b2b 9f3e 210a ab3e
00000090: 2621 8e3e 9445 d6be 064a 893e d659 09bf
000000a0: 3f4f 79be 2b45 d93e 2873 82be 4cc2 b6be
000000b0: 2d1d 93be 1aa4 05be e1ce aebb d5d6 01bd
000000c0: e63b 16ba 6829 17be 0774 c8be 1aba d8be
000000d0: 5ea2 a5be 1438 afbc 71a2 9bbe 6f2f 033f
000000e0: 9f1b 193e 6fa2 a73e 12c9 9dbe 5af2 df3e
000000f0: ca85 8c3e 61ce 833e 935d 053e 7896 e3bd
00000100: d81e b3bd 4605 3cbe 6836 aa3e 20cb f9bd
00000110: fca4 e5be eb66 ddbe ce67 003f 7c2e a2bd
00000120: 386e 4e3e eb36 c8be 02f1 a33e 08b1 693d
00000130: 7055 0cbe e080 b13e adab 7d3d c568 a0be
00000140: 2c06 9b3e 0df7 403d 019b 40be 5c01 273e
00000150: bb7a e0be df8e 803e ebab 42be f466 c83e
00000160: 41fa e3bd b631 a43e 1d6b f83e 4fdb 453d
00000170: 69a7 953e 8991 033e a59a 12bf 06de ffbe
00000180: 7feb 703e 18dd e8bd 1bbf dbbe 1152 6abe
00000190: dff5 82be d5df 0ebe af0d d33e e35d 1bbe
000001a0: aaf0 953e abf1 16be 2e19 8ebd fb87 c63e
000001b0: 8903 73be 9552 f4be 50bf 09bf 835d 38be
000001c0: 80df 773e 4614 373d c884 f6be 6c95 92be
000001d0: d2b6 6cbd 7c2a c4be f22c a6be 095e 6fbe
000001e0: 9ded 553e 00af 403e 4590 843e b81e 00bf
000001f0: 815c e0bd 6f14 b8be faeb 3d3e cdf5 313e
00000200: df05 f1be 62cc b9bd c480 f1be d085 67bd
00000210: 8d96 a0bc 1f1c 193d 41a5 99bd cfed c63e
00000220: d6f3 ee3e e38b c43d 42a2 863e a880 ad3d
00000230: 624e 203e 3cb1 b83b f601 353c 9ccb a3ba
00000240: 07b9 22bb fb28 94bd 6d75 b03e 98cb 56bc
00000250: 04cd 37be 704f b83e 775c 0d3f e9ca ba3e
00000260: 00a6 ec3d 4665 453d d74c 203e 2a6c 2bbc
00000270: 00ad 43be a298 ff3e 1d2c e33d 6322 8dbe
00000280: 2bf3 073e 0296 66be eb2c a83e d38a e0be
00000290: f472 0e3e 54da 5f3d 3bd8 fbbe 7e3a 3fbe
000002a0: db09 6f3e e053 b0be 8367 93be e19b c93e
000002b0: a471 d9be bcb9 c83d 4526 83be cd97 b33c
000002c0: ace8 aebe 76cf c6be 57bf aebe e93f b3be
000002d0: d475 e7bc 6cc0 633c 04d1 903e 95be 343e
000002e0: 1860 e63e f670 2c3d 602d 46be 5d64 acbe
000002f0: b1ad d1be 33e8 f0be bcd5 90be ef59 bdbe
00000300: 1e2a 493e 5a85 dd3e 1d5e adbe c96c 14bd
00000310: df75 423e ad9e eabe 5fad 023e 3e01 a73d
00000320: e8c4 dabd 3622 ac3e d2f1 d33e b41e 0f3e
00000330: 8dc0 883e 465b 253e bbcd dbbd 6d56 ac3e
00000340: a1d6 d93c 3ecf 563d d94c 743e d6e7 c7bd
00000350: 8665 1abe d2a2 14bc 9cd2 8dbe 8b11 7dbc
00000360: 2518 113e 66dc 59be a5a3 d63c dc63 59be
00000370: e8b8 dcbe d1d7 b13e c07c adbe 3afb 06bf
00000380: fc47 183d d4ea 80be 404e febe c8f1 bcbe
00000390: cce6 2abe c520 8abc 72f7 56bc 7842 dd3e
000003a0: 7e10 b03e 8b84 b1be 4793 a3be a549 d0be
000003b0: a076 253e 319e 73be a214 06be e14a d7bd
000003c0: 26dc c9bd b703 e6bc 4726 903e 3095 66bd
000003d0: 2d51 893e 719f f83e 212a 8dbd 4048 673e
000003e0: 3649 8ebe b22f d9bc d501 013f b684 af3e
000003f0: 639b 913e ffb4 bbbd 2b5a 423e 908b 9dbd

layer_1.bias f4 [128]
0.31590173 -0.32724681 0.0030320885 -0.26880395 0.45559078 0.13777763 0.13702212 0.19375457
-0.38380766 0.36583555 -0.033438064 -0.42084396 0.2537003 -0.04297637 -0.47666606 0.24567269
-0.30283326 -0.37362963 -0.33728272 -0.3055256 -0.40367237 0.09460697 0.47475848 0.22963065
0.21357653 -0.1192239 0.07595268 -0.039677933 -0.18129106 -0.045810714 -0.12854744 0.019923743
-0.07828752 0.3393517 0.25263146 -0.2681683 -0.16294864 0.04066396 -0.04356405 -0.09756256
-0.4326633 0.24681132 0.42896757 0.15069017 0.38478664 0.46855697 0.21659058 0.28700724
0.08018982 0.21325804 0.4981604 -0.24032913 0.34448224 -0.1967261 0.092706256 -0.31029022
-0.24256659 0.21636412 0.46454036 0.40053558 0.5138673 -0.19441433 0.23516352 0.4424426
0.1347777 0.2801694 0.09529453 -0.38410023 0.49074224 -0.2732206 -0.22612326 0.49480256
-0.32387808 0.046528295 -0.411977 0.48318505 0.04863138 -0.26608843 0.038558573 0.40503982
0.17202847 -0.2966771 -0.4341203 0.11626996 0.030974448 0.046264026 -0.15320389 0.06066687
0.33206224 -0.3573915 0.36040214 0.20738971 0.074181214 -0.3834987 0.50611717 0.17585692
-0.46405908 0.31280786 0.002359137 0.30472076 0.105559066 -0.19664375 -0.10980161 0.3964399
0.35164696 -0.18800575 0.26134285 0.007957142 0.24836771 0.10152696 -0.36841995 0.07386319
0.08300249 0.017232183 -0.0021679841 0.20300294 0.4807697 0.18769686 -0.0721678 0.102130376
-0.44631398 0.24502413 0.49105385 0.48950776 -0.17243247 0.2764308 0.10739444 0.24095577
00000000: dfbd a13e e58c a7be 01b6 463b aca0 89be
00000010: 3243 e93e 9415 0d3e 874f 0c3e 9967 463e
00000020: 7082 c4be cc4e bb3e 5af6 08bd dc78 d7be
00000030: 01e5 813e fd07 30bd 930d f4be 9f91 7b3e
00000040: f60c 9bbe 624c bfbe 52b0 acbe da6d 9cbe
00000050: 25ae cebe 4dc1 c13d 8b13 f33e 4c24 6b3e
00000060: ceb3 5a3e a92b f4bd 148d 9b3d 5485 22bd
00000070: 5da4 39be 04a4 3bbd f1a1 03be 1e37 a33c
00000080: 3555 a0bd 82bf ad3e e958 813e 5b4d 89be
00000090: 02dc 26be 418f 263d 3870 32bd e1ce c7bd
000000a0: 0b86 ddbe 1bbc 7c3e a3a1 db3e 864e 1a3e
000000b0: c102 c53e b3e6 ef3e ecc9 5d3e 9df2 923e
000000c0: 8f3a a43d 5160 5a3e e10e ff3e d718 76be
000000d0: fa5f b03e 9172 49be c7dc bd3d 5cde 9ebe
000000e0: 6063 78be 8e8e 5d3e 3cd8 ed3e 0013 cd3e
000000f0: cf8c 033f 8d14 47be b5ce 703e d687 e23e
00000100: 2a03 0a3e 5d72 8f3e c729 c33d c9a8 c4be
00000110: 9142 fb3e 92e3 8bbe db8c 67be c356 fd3e
00000120: 59d3 a5be 7494 3e3d a6ee d2be 0864 f73e
00000130: b331 473d be3c 88be 98ef 1d3d 6161 cf3e
00000140: 3b28 303e 10e6 97be 0445 debe f21e ee3d
00000150: 20be fd3c 597f 3d3d 7be1 1cbe d37d 783d
00000160: 1004 aa3e 05fc b6be a186 b83e f85d 543e
00000170: 52ec 973d f159 c4be e590 013f d613 343e
00000180: 2799 edbe 5a28 a03e c09b 1a3b 5c04 9c3e
00000190: 5a2f d83d fb5c 49be abdf e0bd 2cfa ca3e
000001a0: 120b b43e 9484 40be bbce 853e ac5e 023c
000001b0: 1b54 7e3e 5eed cf3d 8aa1 bcbe 9645 973d
000001c0: 36fd a93d 822a 8d3c bd14 0ebb 01e0 4f3e
000001d0: 7227 f63e 9b33 403e b6cc 93bd bb29 d13d
000001e0: 4483 e4be 9be7 7a3e 696b fb3e c3a0 fa3e
000001f0: 2392 30be 5688 8d3e 9ef1 db3d 1cbd 763e

layer_3.weight f4 [128, 128]
0.06942691 9.022424e-07 0.0033823329 -0.015525123 -0.03531583 -0.0035900844 0.0047671907 -0.009344804
0.011488467 0.0763364 0.019909346 -0.0009419591 -0.0052684853 0.011928493 0.031955495 -0.05829101
-0.0002514014 0.003917094 -0.037735708 -0.0038333158 8.984018e-05 0.032012805 -0.055192653 -0.003380219
-0.04070461 -0.0023372516 0.028696531 -0.03230543 0.00018453207 -0.024297316 0.008608199 0.031912986
0.043476406 -0.021963052 0.00689571 -0.008932402 -0.012642025 0.005062898 -0.000709154 -0.0029747852
-0.0012777948 -0.031737417 0.0702679 -0.05470743 0.012940794 0.010149457 0.013570788 -0.038924746
0.0002811115 -0.019038506 0.011149189 0.006843609 0.045491572 0.013722644 0.0713956 -0.00073562155
-0.032437883 0.0019373453 -0.01676311 -0.018141935 0.049539577 -0.0026611458 0.010698829 0.069350734
-0.008162075 -0.025816426 0.06563178 0.005781831 -0.036244538 -0.0047632554 0.0057061072 0.009880055
0.052272454 0.0023837686 0.0064521604 0.012970476 0.0014747487 0.0116277505 0.0507007 -0.010316869
0.00834258 0.003698511 0.0081777405 0.013928279 0.014211756 -0.002709114 0.0011544782 -0.026381807
0.014503557 0.005718957 0.0653367 0.0064989277 0.0060111573 -0.011865265 0.007554168 0.041248396
0.0056230845 0.0083361175 -0.0072653596 -0.009197194 0.014065083 0.041597612 0.030544924 -0.017070593
0.05702742 0.015473538 -0.015178944 -0.05781819 -0.001281091 0.0023507348 0.01222802 0.0059326864
-0.044539556 -0.039139796 0.002944638 0.0716083 -0.036696497 -0.0042001037 0.04475947 0.078721434
0.0132652735 0.016362397 -0.045751244 0.008733268 -0.0051968 0.007133167 0.006611895 -0.0029145086
0.004123461 4.4387514e-07 0.0013152631 -0.00043531516 8.1693054e-07 -0.0072002336 7.7368654e-08 -0.016528798
0.014435251 -0.016375516 -0.0054576406 -7.967586e-06 -0.031011235 -0.011767736 8.932541e-07 0.006656053
-3.1887205e-06 -0.021568188 0.036671117 0.00042018064 2.640029e-07 0.010549776 -0.018448964 -0.009653598
-0.00512242 -0.004213704 -0.03676083 -0.011487249 -9.442225e-08 -0.0050025634 6.2781887e-06 -0.0064147594
-0.0049976525 -0.00027366952 3.3138125e-08 -6.759744e-06 -1.4031168e-06 -0.0071194614 -0.010499852 0.0021305243
0.0032778066 0.0413963 -0.043079566 -0.005056618 -0.005128985 -0.025024543 8.428371e-07 0.038716894
-0.0009097363 -0.018549807 0.0031985545 1.5730171e-07 -0.004926369 8.8646e-08 -0.0050084563 0.002053167
-0.0020024758 0.023619093 0.014489025 -0.013200371 0.027036067 2.9029698e-07 -0.0051862616 0.023953985
-0.0050709373 0.015509926 -0.040213432 7.461758e-08 -0.005087563 -0.0037964229 0.010295748 -0.022472935
-0.017184857 -0.03427348 4.1150346e-05 -0.00028106748 -2.1304808e-05 0.0009210235 -0.008361363 -0.02439775
0.02394407 0.014971067 -3.2847626e-07 0.01368263 -0.005099017 -0.0051168287 -0.023061855 0.020330433
-0.010197186 -1.8721732e-07 -0.005100553 -0.005159084 -2.51924e-08 1.5252581e-07 0.014407105 -0.005312785
-0.0067917025 0.016828012 -0.0001498089 -0.007841001 0.007851588 0.004937116 2.1940588e-07 -0.0050344816
-0.019837487 -0.004369742 -0.005018097 -0.0050208652 4.7550571e-07 0.011141302 -0.009771708 -1.2438863e-07
-0.0073478147 -0.005151637 -0.0050108368 0.0031917384 -1.2530248e-07 -0.02684453 3.6520382e-07 -0.0051481975
0.008232186 -0.03053022 -0.005122645 -0.008540181 -0.0090604015 0.006812 0.0008221225 0.030697757
00000000: b22f 8e3d a031 7235 21aa 5d3b 165d 7ebc
00000010: 55a7 10bd 9f47 6bbb 1836 9c3b f31a 19bc
00000020: 203a 3c3c 4256 9c3d ed18 a33c ceed 76ba
00000030: 42a3 acbb ba6f 433c c4e3 023d 8ec2 6ebd
00000040: 86ce 83b9 f75a 803b c290 1abd 5e38 7bbb
00000050: 9468 bc38 dc1f 033d b111 62bd aa86 5dbb
00000060: e1b9 26bd 932c 19bb fd14 eb3c b352 04bd
00000070: f37e 4139 2a0b c7bc 6709 0d3c 31b7 023d
00000080: 5114 323d dceb b3bc 68f5 e13b 3659 12bc
00000090: 7f20 4fbc abe6 a53b 85e6 39ba 9df4 42bb
000000a0: ae7b a7ba 18ff 01bd 9ee8 8f3d e614 60bd
000000b0: a005 543c e849 263c 0358 5e3c 8e6f 1fbd
000000c0: 2662 9339 a4f6 9bbc 17ab 363c 5a40 e03b
000000d0: 5f55 3a3d f1d4 603c db37 923d bad6 40ba
000000e0: 96dd 04bd 85ee fd3a ca52 89bc 659e 94bc
000000f0: 03ea 4a3d 9e66 2ebb 244a 2f3c c207 8e3d
00000100: 39ba 05bc f87c d3bc f469 863d 8475 bd3b
00000110: 2775 14bd 1515 9cbb 4cfa ba3b f4df 213c
00000120: a41b 563d 0039 1c3b a56c d33b 1f82 543c
00000130: 5b4c c13a 5282 3e3c 8aab 4f3d 1608 29bc
00000140: 51af 083c b862 723b eefb 053c 7033 643c
00000150: 6dd8 683c 648b 31bb dc51 973a a91e d8bc
00000160: 54a0 6d3c 1766 bb3b 3fcf 853d f5f4 d43b
00000170: 3ef9 c43b 8766 42bc f488 f73b 14f4 283d
00000180: da41 b83b 3694 083c 4112 eebb d4af 16bc
00000190: 3c71 663c 4262 2a3d 5939 fa3c a1d7 8bbc
000001a0: 9595 693d b984 7d3c 1bb1 78bc c4d2 6cbd
000001b0: 48ea a7ba c90e 1a3b 0858 483c fb66 c23b
000001c0: 1c6f 36bd 0d51 20bd d4fa 403b 5fa7 923d
000001d0: 114f 16bd 06a1 89bb b555 373d b438 a13d
000001e0: 9756 593c 6f0a 863c a865 3bbd fb15 0f3c
000001f0: eb49 aabb 57bd e93b 98a8 d83b 5701 3fbb
00000200: 191e 873b bc4d ee34 e864 ac3a 033b e4b9
00000210: 0a4b 5b35 f0ef ebbb de25 a633 6767 87bc
00000220: d581 6c3c f225 86bc 02d6 b2bb 85ac 05b7
00000230: 460b febc 76cd 40bc f4c7 6f35 051b da3b
00000240: cdfd 55b6 c5af b0bc 7434 163d b14b dc39
00000250: 48bc 8d34 f8d8 2c3c 4822 97bc 202a 1ebc
00000260: f9d9 a7bb 1c13 8abb 8692 16bd 0435 3cbc
00000270: 2ec5 cab3 8bec a3bb 3ba9 d236 e732 d2bb
00000280: 59c3 a3bb 4d7b 8fb9 c153 0e33 c2d1 e2b6
00000290: ba52 bcb5 5f4a e9bb 9207 2cbc 44a0 0b3b
000002a0: 78d0 563b 2b8f 293d 3374 30bd fcb1 a5bb
000002b0: 0b11 a8bb 4500 cdbc 533f 6235 9b95 1e3d
000002c0: 5f7b 6eba c4f5 97bc d79e 513b c4e6 2834
000002d0: 616d a1bb a75d be33 fa1d a4bb 6d8e 063b
000002e0: f83b 03bb d47c c13c 6063 6d3c 5e46 58bc
000002f0: be7a dd3c 1dda 9b34 84f1 a9bb 263b c43c
00000300: 1b2a a6bb 581d 7e3c d7b6 24bd 733d a033
00000310: 92b5 a6bb 68cd 78bb 7faf 283c 2919 b8bc
00000320: 42c7 8cbc 5962 0cbd d998 2c38 3d5c 93b9
00000330: bab7 b2b7 d770 713a 19fe 08bc cadd c7bc
00000340: 5b26 c43c 3549 753c 6f59 b0b4 1c2d 603c
00000350: a815 a7bb 12ab a7bb 37ec bcbc 028c a63c
00000360: 1912 27bc e805 49b4 8a22 a7bb 890d a9bb
00000370: ac66 d8b2 fac5 2334 c70b 6c3c df16 aebb
00000380: ee8c debb e6da 893c 0516 1db9 8b77 00bc
00000390: f2a3 003c 88c7 a13b d495 6b34 4bf8 a4bb
000003a0: 3a82 a2bc 0d30 8fbb d96e a4bb 1286 a4bb
000003b0: 0249 ff34 028a 363c 8419 20bc b08f 05b4
000003c0: f0c5 f0bb 10cf a8bb f231 a4bb 7c2c 513b
000003d0: e28a 06b4 0fe9 dbbc 3b11 c434 36b2 a8bb
000003e0: 4ae0 063c 831a fabc dcdb a7bb 1eec 0bbc
000003f0: 1472 14bc 3337 df3b b583 573a dd79 fb3c

layer_3.bias f4 [128]
-0.04051061 -0.03486114 -0.005938418 -0.002408648 0.007999732 -0.031264137 0.040680606 0.022339338
0.012748279 -0.05311842 -0.030627215 -0.050070606 -0.02728208 -0.08380854 -0.074118406 -0.06552095
0.08737326 0.006498465 -0.013203643 -0.0057476885 0.065329835 -0.010166491 -0.03350381 -0.05285394
0.0056754905 0.03221657 0.07582612 -0.055012625 -0.036741488 0.023478094 -0.01109956 0.0439412
0.037816316 -0.0080269575 0.04892819 -0.04022012 0.0016849695 0.0746534 2.48436e-06 0.04976124
-0.008262234 0.0011519813 -0.06871933 -0.049787685 -0.001044805 -0.08373284 0.07658642 -0.048787635
-0.0038585742 -0.003610412 -0.02362155 0.033770848 0.064762175 -0.020959992 -0.033671033 -0.004603614
-0.005948506 -0.03769313 -0.05140682 -0.0045458013 -0.019017078 -0.009214563 -0.055675633 -0.013815924
-0.01896847 0.0010583096 -0.023436531 0.07561292 0.07065196 -0.0446998 0.06762824 -0.048618544
-0.030175816 -0.02256913 0.07332815 0.08355821 0.07129617 -0.028451828 0.061232615 0.07563709
0.050783537 0.06032933 0.06907044 0.008611852 0.04831316 0.0004091364 0.09825141 0.074578725
-0.057445135 -0.02085419 0.05870638 0.04366763 0.018983075 -0.0062585906 0.08065493 0.065256655
0.10530263 0.004565367 0.07714508 -0.034125295 -0.028085178 -0.04886425 -4.717028e-09 -0.010222521
-0.024838608 0.045571357 -0.0013270007 -0.010467148 0.012728842 0.013696901 0.00031491858 0.09148176
0.060094103 0.065408275 -0.006586291 -0.0484223 -0.007992259 -0.0019748004 0.0019450646 0.07872128
0.022730583 0.0038696667 0.007996523 -0.010074096 -0.0049534263 -0.016613614 -0.025476616 -0.0001962633
00000000: 74ee 25bd 8eca 0ebd 1097 c2bb 68da 1dbb
00000010: 4f11 033c d30e 00bd b5a0 263d fd00 b73c
00000020: 28de 503c b392 59bd ede5 fabc d616 4dbd
00000030: ab7e dfbc d0a3 abbd 64cb 97bd d92f 86bd
00000040: c0f0 b23d 13f1 d43b 1854 58bc 1b57 bcbb
00000050: a6cb 853d 5b91 26bc 4b3b 09bd 5f7d 58bd
00000060: 77f9 b93b 86f5 033d ba4a 9b3d eb54 61bd
00000070: 3e7e 16bd 2255 c03c eeda 35bc b0fb 333d
00000080: 48e5 1a3d 8083 03bc ed68 483d dabd 24bd
00000090: 32da dc3a e2e3 983d fbb8 2636 71d2 4b3d
000000a0: 525e 07bc 14fe 963a b8bc 8cbd 2cee 4bbd
000000b0: d7f1 88ba 207c abbd 57d9 9c3d 8bd5 47bd
000000c0: 22e0 7cbb a99c 6cbb fb81 c1bc 4d53 0a3d
000000d0: 08a2 843d 4ab4 abbc a3ea 09bd ead9 96bb
000000e0: afeb c2bb 1d64 1abd f58f 52bd f2f4 94bb
000000f0: b4c9 9bbc aef8 16bc 220c 64bd 2f5c 62bc
00000100: c463 9bbc fab6 8a3a f8fd bfbc f2da 9a3d
00000110: fab1 903d 2317 37bd ad80 8a3d 3d24 47bd
00000120: 4633 f7bc e5e2 b8bc 122d 963d 9120 ab3d
00000130: ba03 923d cf13 e9bc 0dcf 7a3d 9ee7 9a3d
00000140: 6602 503d e31b 773d ce74 8d3d ba18 0d3c
00000150: 05e4 453d 5c81 d639 0938 c93d bbbc 983d
00000160: 974b 6bbd 68d6 aabc 1a76 703d d4dc 323d
00000170: 6582 9b3c dd14 cdbb 692e a53d 48a5 853d
00000180: e8a8 d73d 1399 953b 3dfe 9d3d f7c6 0bbd
00000190: e312 e6bc e125 48bd 6b13 a2b1 5c7c 27bc
000001a0: 567a cbbc 08a9 3a3d c1ee adba 677e 2bbc
000001b0: a28c 503c f768 603c a81b a539 ca5a bb3d
000001c0: 3c25 763d c6f4 853d d0d1 d7bb 7656 46bd
000001d0: f7f1 02bc a76b 01bb 8af1 fe3a 9f38 a13d
000001e0: 7d35 ba3c 3c9a 7d3b d903 033c d20d 25bc
000001f0: 5a50 a2bb 4619 88bc 56b4 d0bc 07cc 4db9

layer_5.weight f4 [2, 128]
0.033307787 -0.025543619 0.051951 0.047233492 0.020131003 0.070578076 1.6599678e-06 -0.01115719
0.030115834 0.0017878104 0.0009877929 -0.038087957 0.020801155 -0.07740418 0.08602838 -0.0050899643
0.09618485 -0.07805325 0.0063890144 -0.005527805 -0.05954302 0.075242385 -0.033110525 -0.074382186
0.022046827 -0.04164328 0.03272284 -0.05633723 -0.03574054 -0.035863835 -0.046564568 0.042184968
0.00760349 -0.0014287948 -0.066018805 0.041244302 -0.006574887 0.08804214 0.009110835 0.08954292
0.07109141 -0.015745267 0.00467645 8.161701e-06 0.002347872 0.040329047 0.11007049 -0.047210574
-0.0021564935 0.0015413006 -0.015021012 0.06540379 0.08489382 -0.040002245 -0.051333763 0.09828742
0.027741665 -0.09109345 -0.015394187 0.016452309 -0.023201881 0.0978878 -0.000383853 0.012224083
-0.016642349 -0.034165528 -0.055405468 0.051679064 -0.05469153 0.012138006 -0.04891758 -0.084378384
-0.07106387 0.01839555 0.086937 -0.0035676453 -0.004515554 0.027248478 0.12079638 0.042999808
0.04778684 9.329714e-05 -0.0943676 0.0019546845 0.043839797 -0.012861712 -0.02441465 -0.011146103
-0.024393214 -0.0009067261 0.07020252 0.10528618 0.049588658 -0.0062566334 0.072486795 -0.080865964
0.11665312 0.06731591 -0.09284811 0.023368737 -0.0153120095 -0.015997378 -7.42612e-07 -0.08834159
0.048455168 0.12812026 0.0039203926 -0.024445748 -0.044087604 0.013257614 -0.047556743 0.10321559
-0.046452876 -0.08139623 0.081954405 0.0040563103 -0.03801754 0.0063330713 0.0062459763 0.094712205
0.031832065 0.025635779 -0.0012668167 -0.0017859347 -2.019108e-06 0.09453824 -0.00451187 0.03912576
0.038196355 -0.0037471121 0.09751342 -0.09453618 0.069008596 -0.06793943 -0.04727676 0.0631053
0.048209235 0.025617462 0.0041046715 0.07780983 0.04140115 -0.039595388 -0.07803379 -0.0086532645
0.024782952 -0.0655142 -0.08650544 -0.044536203 0.031270687 -0.0236871 -0.023427019 -0.042725198
-0.0560886 0.05117136 0.041222718 0.032372523 0.0046413476 0.059913706 0.11477742 0.120781966
0.054344747 -0.011264649 0.08232033 0.056345884 -0.01532549 -0.056500882 -0.0074830297 0.006004547
0.018278668 -0.013043378 0.027419254 0.04308516 0.0003793432 0.061148778 0.02105837 -0.06505558
0.009368963 0.0048610494 -0.0028989688 -0.055998936 0.0024282753 0.029300908 0.10612832 -0.088398896
0.025110086 0.0891698 -0.06565403 -0.0018553741 0.049152374 -0.023239382 -0.077861235 -0.059675008
0.067628 0.024935551 -0.008175349 -0.04440288 -0.016653089 -0.0032969078 0.007900248 -0.015310013
0.063862175 -0.06589389 -0.023307538 0.101649955 0.057375293 -0.022639114 -0.01598588 -0.024351414
0.101106405 0.04585657 0.039717343 -0.044541515 -0.012041686 0.0471554 0.04385084 0.028031575
0.06472775 0.0035382928 0.07139261 0.07366108 0.041005686 0.008286695 0.0884467 -0.051194172
-0.07822242 0.069615714 0.10049884 0.041005068 0.020874072 0.024808489 0.014667386 0.083431736
0.009339583 -0.11423301 -0.0021202583 -0.09053662 0.049396176 -0.019367276 0.060044672 -0.012019469
0.093005516 -0.046970297 -0.09858586 0.006631562 0.06370594 -0.006315764 -0.09075405 0.05250808
0.0767083 -0.06650376 8.9200415e-07 0.0074346843 -3.078942e-07 -0.052037563 -0.0036056244 0.012031962
00000000: bf6d 083d da40 d1bc 92ca 543d e877 413d
00000010: c6e9 a43c 3d8b 903d 0fcc de35 a6cc 36bc
00000020: 7bb5 f63c f654 ea3a d478 813a 1e02 1cbd
00000030: 2f67 aa3c 1586 9ebd a62f b03d b7c9 a6bb
00000040: 90fc c43d 62da 9fbd f05a d13b 9722 b5bb
00000050: 62e3 73bd ae18 9a3d e79e 07bd b055 98bd
00000060: 8c9b b43c 2592 2abd 6208 063d dec1 66bd
00000070: ac64 12bd f5e5 12bd 7dba 3ebd 25ca 2c3d
00000080: b226 f93b 6646 bbba de34 87bd c9ef 283d
00000090: 2672 d7bb 704f b43d 9d45 153c 4762 b73d
000000a0: 6098 913d 38fc 80bc e83c 993b 3dee 0837
000000b0: c1de 193b 1230 253d a36c e13d e05f 41bd
000000c0: f553 0dbb 7705 ca3a b11a 76bc 6cf2 853d
000000d0: d0dc ad3d 65d9 23bd 5a43 52bd ea4a c93d
000000e0: 7d42 e33c 348f babd e637 7cbc fec6 863c
000000f0: df11 bebc 6679 c83d e13f c9b9 8547 483c
00000100: 8955 88bc 27f1 0bbd d8f0 62bd 6dad 533d
00000110: 3a04 60bd 7dde 463c cd5d 48bd 93ce acbd
00000120: ef89 91bd 44b2 963c 070c b23d 28cf 69bb
00000130: 36f7 93bb 3338 df3c 1864 f73d 9120 303d
00000140: 22bc 433d 85a8 c338 cd43 c1bd 2a1a 003b
00000150: 5c91 333d eeb9 52bc 3b01 c8bc 259e 36bc
00000160: 47d4 c7bc 5cb1 6dba 57c6 8f3d 48a0 d73d
00000170: 7a1d 4b3d 7204 cdbb f573 943d 0e9d a5bd
00000180: d5e7 ee3d ecdc 893d 2627 bebd cb6f bf3c
00000190: 39df 7abc ef0c 83bc e857 47b5 6fec b4bd
000001a0: ed78 463d f531 033e a376 803b 7342 c8bc
000001b0: 3495 34bd 7736 593c dcca 42bd b262 d33d
000001c0: 5f45 3ebd 11b3 a6bd b6d7 a73d ccea 843b
000001d0: 48b8 1bbd a785 cf3b 0cab cc3b 79f8 c13d
000001e0: 5762 023d 2002 d23c 510b a6ba 0616 eaba
000001f0: 0380 07b6 449d c13d 4fd8 93bb 5542 203d
00000200: c873 1c3d 1c92 75bb 1eb5 c73d 2f9c c1bd
00000210: 6154 8d3d d423 8bbd 47a5 41bd 5a3d 813d
00000220: 0c77 453d b6db d13c 7b80 863b c35a 9f3d
00000230: 4194 293d c62e 22bd 2ed0 9fbd 6cc6 0dbc
00000240: 9e05 cb3c 4f2c 86bd c429 b1bd 986b 36bd
00000250: b115 003d 730b c2bc 05ea bfbc 9e00 2fbd
00000260: 29bd 65bd 0f99 513d 27d9 283d 0d99 043d
00000270: 7216 983b 1368 753d 6d10 eb3d 895c f73d
00000280: 9998 5e3d 5d8f 38bc 9097 a83d f1ca 663d
00000290: c417 7bbc 786d 67bd 3434 f5bb cac1 c43b
000002a0: 25bd 953c e4b3 55bc 589e e03c 117a 303d
000002b0: 95e2 c639 2477 7a3d 9a82 ac3c dc3b 85bd
000002c0: 4780 193c 7049 9f3b a0fc 3dbb 245f 65bd
000002d0: b323 1f3b 7508 f03c ce59 d93d 7b0a b5bd
000002e0: abb3 cd3c a89e b63d 9f75 86bd 0630 f3ba
000002f0: 0054 493d 8460 bebc b675 9fbd c86d 74bd
00000300: 8d80 8a3d a445 cc3c e6f1 05bc cbdf 35bd
00000310: 0f6c 88bc ef10 58bb 0b70 013c d9d6 7abc
00000320: 2cca 823d 60f3 86bd 73ef bebc da2d d03d
00000330: 5b02 6b3d aa75 b9bc d2f4 82bc 9e7c c7bc
00000340: e010 cf3d 19d4 3b3d a7ae 223d 2a71 36bd
00000350: 7e4a 45bc 0526 413d f09c 333d 79a2 e53c
00000360: fc8f 843d b4e2 673b 4a36 923d 9fdb 963d
00000370: 94f5 273d ebc4 073c 8b23 b53d fbb0 51bd
00000380: 1333 a0bd af92 8e3d 56d2 cd3d eef4 273d
00000390: 1a00 ab3c 2c3b cb3c 7a4f 703c 42de aa3d
000003a0: 0d05 193c fff2 e9bd 08f4 0abb 436b b9bd
000003b0: a553 4a3d 1fa8 9ebc 67f1 753d 4fed 44bc
000003c0: ad79 be3d ed63 40bd 62e7 c9bd 934d d93b
000003d0: 4378 823d 78f4 cebb 42dd b9bd b612 573d
000003e0: 3e19 9d3d 2033 88bd 0f72 6f35 a79e f33b
000003f0: a84c a5b4 5725 55bd 574c 6cbb b521 453c

layer_5.bias f4 [2]
-0.02958345 -0.019390082
00000000: fe58 f2bc f3d7 9ebc
