CartPole/trained.model (torch_old, 70777 bytes, 6 tensors)

layer_1.weight f4 [128, 4]
00000000: 2874 51be 6f58 f6be 593f ed3e fe7b 853e
00000010: d417 18be f33a 3e3e 2671 853e d995 faba
00000020: 75a3 ee3e 2cc5 2f3d 89c7 4dbe 8fd6 0bbf
00000030: 4e61 19be 5eca fd3e 0253 95be 96f1 833e
00000040: c05c 5cbe 4312 f13e afd7 5dbe f3c6 6dbe
00000050: 57f9 f7bd 5710 9f3e 1c7d 55be c166 e63c
00000060: e8de 9fbe a786 cd3e 1610 f8be 9860 c93a
00000070: 85ab 23be 9d83 ad3c 5911 20bf aa3d 613d
00000080: 9713 dd3d 656f bebe eab4 c63e effb b13e
00000090: 27b6 853e 4ecf e3be 5c41 c83d 64cb 13bf
000000a0: 23ef 88be 54a7 ce3e eb6a c7be ba51 c2be
000000b0: 5bbe 84be e478 d9bd bfab b63c fb76 2cbd
000000c0: b421 a8bc d069 2bbe 700b 14bf 54df f0be
000000d0: 930a 9dbe d1b2 fbbb bf3b 3abe 6214 0c3f
000000e0: 1386 113e bcf9 ab3e 0a4e 9dbe 1872 d73e
000000f0: 71d8 813e 3370 6c3e 3d23 de3c 02a1 0bbe
00000100: 4812 8fbd 4a06 2abe c2d4 ae3e aa9d fdbd
00000110: 1e14 d6be 5627 cbbe 0af3 df3e de24 f1bd
00000120: 50ae 503e a7b5 c1be 16ec c23e 0c24 703d
00000130: 793e 10be 2c8e ad3e f869 2bba 4057 a4be
00000140: bf22 913e df43 1a3c 71ad 55be 0d24 233e
00000150: 6bb2 d8be 8a52 813e 057e 39bd f357 dd3e
00000160: f450 b0bd 9596 ad3e 7be7 2e3f 355e d43d
00000170: d235 8c3e 86ff ca3d d283 37bf e410 06bf
00000180: 36ee 4d3e 0eb5 0fbe 7958 18bf 9f23 8dbe
00000190: ad40 7fbe 8b76 fdbd 10f8 9e3e 519f 42be
000001a0: e363 9b3e 4f8c 00be 8de7 963d 1252 e03e
000001b0: 8587 81be 5a91 f6be c9f9 2dbf 25de 66be
000001c0: 432d 6b3e 49db dc3c 60ca 11bf fa5d 9dbe
000001d0: d3f4 9dbd ad2a c5be f411 f0be c99d 91be
000001e0: 8ce5 423e 438d 273e 16ad 2e3e bfac 04bf
000001f0: 3cc9 b8bd 7148 b2be 256f 9b3e 246d 5b3e
00000200: 4472 f5be 4787 a7bd 41e9 1dbf 6918 cebd
00000210: 64be be3b 4b40 7b3d 8dc3 df3d d564 e03e
00000220: 1529 ea3e fb89 dc3d 24ec dd3e 7542 f73d
00000230: a916 013e 6e96 b3bc ed38 05bc 12c5 49ba
00000240: c607 983b 1dae 85bd be15 a33e d7d2 5ebc
00000250: 8c33 15be c375 c13e 9884 343f 42ec ce3e
00000260: 8993 d63d b17f 363d 6c4b 633e 1ccd 9b3a
00000270: b4f3 5abe e692 f33e 9dbf 593c 58a8 99be
00000280: 9c99 ec3d 622e 65be a47c 983e 2a18 debe
00000290: 23d0 d13d 3e2c c53c ad2a 2bbf 6daa 6dbe
000002a0: 956a 6c3e 7f4d aebe 77ae 28be 82d9 db3e
000002b0: b239 cfbe df16 103e 48e2 bcbe a1b7 b1bb
000002c0: 6a1e b6be 3816 c7be e33a 05bf 3fd7 cdbe
000002d0: 6821 bdbb fb72 0b3d 990e f33e 58aa 673e
000002e0: d45c db3e 86bd 773c b6f2 a9be 9fa3 bfbe
000002f0: 0c4b d5be 861e f3be 7b8b e9be 0874 d3be
00000300: 7bd9 343e e9d6 d03e dbfa e4be f384 64bd
00000310: 39f4 403e 43b3 e0be 6b2b a03d e98e 843d
00000320: 119e a8bd 0653 b43e 8bd7 1c3f edd5 453e
00000330: 3f06 603e cb3f ea3d a529 13be 13e6 a93e
00000340: 9710 3a3d c1db 8a3d f834 dd3e d64b 52bd
00000350: 986a 00be f41d 183c c3e1 82be 8268 fabc
00000360: 3ab2 003e 06dd 71be 2b4c 14be e1bf 80be
00000370: 9a4b e2be fc34 b03e 467a d4be 9729 0cbf
00000380: c3bf b83c d20f 93be 3f48 07bf f55a bcbe
00000390: 17fa 09be 1b72 95b9 03da 1d3e 3cf1 f53e
000003a0: 5ed2 a23e 1d08 bfbe 3617 fcbe 7f67 e5be
000003b0: f498 013e ad24 89be c356 9dbe 9a81 11be
000003c0: 9309 eebd 0981 53bd 60ba 233e 5af6 a2bd
000003d0: 12c4 8d3e e792 fd3e f94e 193d 9c5d 813e
000003e0: 9507 7dbe 5416 27bc 31fb 2c3f 4946 c73e
000003f0: d75e 8b3e ded8 e3bd 9a89 923e 4b40 80bd
-0.20454466 -0.48114344 0.46337393 0.2607116 -0.1485284 0.18577175 0.26062888 -0.0019118144
0.46609083 0.042912647 -0.20095648 -0.54624265 -0.14978525 0.49568456 -0.29164892 0.25770253
-0.21519756 0.47084245 -0.21664308 -0.23220424 -0.12108105 0.31067154 -0.20848507 0.028125169
-0.3122475 0.40141794 -0.48449773 0.001536387 -0.15983398 0.021180922 -0.6252647 0.054990448
0.10794752 -0.37194362 0.388099 0.34762523 0.26115534 -0.44494098 0.09778091 -0.57732224
-0.26744947 0.40362036 -0.3894876 -0.37952977 -0.2592648 -0.10618761 0.022298692 -0.042105656
-0.020523883 -0.16739583 -0.5782995 -0.47045386 -0.3067213 -0.0076812287 -0.18186854 0.547186
0.14211302 0.3358897 -0.30723602 0.42079234 0.25360444 0.23089676 0.027116412 -0.13635638
-0.06985909 -0.16603962 0.34146696 -0.12383588 -0.41812223 -0.39678448 0.43740112 -0.1177461
0.20378995 -0.37833902 0.38070744 0.058628127 -0.14086331 0.3389753 -0.0006538923 -0.32097816
0.28346822 0.009415596 -0.20866944 0.15931721 -0.42323622 0.25258285 -0.045286197 0.43231162
-0.086091906 0.33903947 0.6832196 0.10369531 0.27384812 0.099120185 -0.71685517 -0.52369523
0.20110402 -0.1403391 -0.5951 -0.2756624 -0.24927016 -0.12376126 0.31048632 -0.19006087
0.30349645 -0.12553523 0.073683836 0.43812615 -0.25298706 -0.4815777 -0.67959267 -0.22545679
0.22966485 0.026960032 -0.56949425 -0.3073576 -0.07712712 -0.38509122 -0.46888697 -0.28440693
0.19032878 0.16362481 0.17058215 -0.5182609 -0.090227574 -0.34820893 0.30358234 0.21428353
-0.4793874 -0.08180099 -0.6168404 -0.100632496 0.005821036 0.06134061 0.1092597 0.4382693
0.45734468 0.10768505 0.43344223 0.120732225 0.126063 -0.021922316 -0.008131248 -0.0007696907
0.0046395985 -0.0652735 0.31852525 -0.013600073 -0.14570445 0.37785158 0.7051482 0.40414625
0.10477359 0.04455537 0.2219674 0.0011886689 -0.21382028 0.47573012 0.013290313 -0.3001125
0.11552736 -0.22380975 0.29782593 -0.4337781 0.10244777 0.024068948 -0.66861993 -0.23209544
0.23087533 -0.340435 -0.16472803 0.42939383 -0.40473706 0.14071225 -0.3689139 -0.0054235016
-0.3557008 -0.3888414 -0.5204298 -0.40203282 -0.0057718046 0.0340452 0.47472075 0.22623575
0.4284426 0.0151208695 -0.33192986 -0.3742952 -0.4165882 -0.47484225 -0.45614228 -0.41299462
0.17661087 0.40788963 -0.44722638 -0.055790853 0.18843164 -0.43886766 0.07820781 0.064725704
-0.08233274 0.35219592 0.6126639 0.19319887 0.21877383 0.11437949 -0.14371355 0.33183345
0.045425978 0.06780196 0.43204474 -0.051341854 -0.12540662 0.009284485 -0.25562868 -0.030567411
0.12567988 -0.2361947 -0.14482181 -0.25146392 -0.44198304 0.34415424 -0.41499537 -0.5475096
0.022552377 -0.28723007 -0.52844614 -0.36788145 -0.13474308 -0.0002850451 0.15415196 0.4803561
0.31801122 -0.37310877 -0.4923646 -0.44805524 0.12656003 -0.26785794 -0.30730256 -0.14209595
-0.1162292 -0.05163673 0.15989065 -0.07957144 0.27688652 0.4952614 0.03742883 0.2526673
-0.24709924 -0.0101981945 0.6757079 0.3892081 0.27220795 -0.111253485 0.28620607 -0.06262263

layer_1.bias f4 [128]
00000000: f98e a63e d75b a9be 5d9e d33b 9fa2 84be
00000010: dd50 ea3e af9e 283e d1ca ee3d 953e 483e
00000020: 8cc3 c5be d785 b63e ac52 d0bc 919e e5be
00000030: e807 833e bd56 30bd 48fc f6be e3bc 6c3e
00000040: bc8f a4be b2f3 d7be b1c1 afbe 8c33 a2be
00000050: 67f6 d8be 4263 c53d 935a f93e ecaa 6e3e
00000060: 79ec 5c3e d8f7 0bbe 4a2e bf3d 7a03 54bc
00000070: 3c10 40be 8094 91bc aef3 10be 2245 ac3c
00000080: 3ba0 97bd 18ad b13e 638b 893e d947 98be
00000090: f0bc 2bbe ff54 d73d 495e f0bc 7249 ecbd
000000a0: d7a4 dbbe 1c0a 803e 830e d93e ae62 243e
000000b0: 695d ca3e a30e f63e 46f8 553e 6235 9d3e
000000c0: ea8b 8d3d 4532 353e 0381 043f a628 94be
000000d0: 863b b73e bde7 64be fe2a b43d fd03 98be
000000e0: 959d 4abe 9900 623e 03e2 ea3e 3eb9 c83e
000000f0: 26ad 053f e2da 36be 5dfd 793e e3a8 ed3e
00000100: 6257 e63d 249c 8b3e 3f8c 0b3e edfc cbbe
00000110: b804 003f f22f 83be 7f5e 84be a0ce 003f
00000120: 2d4e 9dbe 83ba e13d ae1e e3be a4bb fe3e
00000130: dbcd 933d 7ffd 87be f8c5 293d 1aa6 ce3e
00000140: f70b 393e 6412 a9be b0c0 d8be ca00 dd3d
00000150: 041a 253d e24c 9a3d 389d 0abe fc28 9a3d
00000160: 2b7e af3e 04b4 c1be 6668 bf3e 9c54 613e
00000170: c873 f83d d64a c1be e151 003f 444b 4f3e
00000180: 216e fcbe 032d ad3e ac21 f63b f03e 9e3e
00000190: b784 db3d dfc8 3fbe 2baf bfbd 7c7e cb3e
000001a0: a57b b83e 6aa4 5fbe f110 8e3e 949d 013d
000001b0: ea37 6f3e 12e7 e43d d41f cebe 661c a33d
000001c0: 9cf8 cd3d 2d8a 1c3d d779 a33c 9450 593e
000001d0: 226a ff3e d912 533e 51a1 00bd 593d be3d
000001e0: cff0 e9be 29e8 863e 90c1 003f 0731 043f
000001f0: ec7a 24be 5e7a 9a3e a273 013e cea2 6b3e
0.32530954 -0.3307788 0.0064580874 -0.2590532 0.4576482 0.16466783 0.11659778 0.19555123
-0.38625753 0.35648987 -0.025430046 -0.4484754 0.2559197 -0.04305147 -0.4823935 0.2311893
-0.3214091 -0.42178112 -0.34327462 -0.31679952 -0.4237549 0.096380726 0.48701915 0.23307389
0.21574582 -0.13668764 0.09335001 -0.012940282 -0.18756193 -0.017771006 -0.14155456 0.021029059
-0.074036084 0.34702373 0.26864156 -0.29742315 -0.16771293 0.105142586 -0.029341834 -0.11537446
-0.428992 0.25007713 0.42393884 0.16053268 0.3952439 0.48058042 0.2089549 0.3070479
0.06911452 0.17694958 0.51759356 -0.28937262 0.357876 -0.22354026 0.087972626 -0.29690543
-0.19786675 0.2207054 0.45875558 0.3920383 0.5221733 -0.17856935 0.24413057 0.46417913
0.11247136 0.27267563 0.13627718 -0.39841405 0.500072 -0.25622517 -0.25853345 0.50315285
-0.30723706 0.110219024 -0.44359344 0.49752533 0.07216998 -0.2656059 0.041448563 0.403611
0.1807097 -0.33021843 -0.4233451 0.10791166 0.040308014 0.075341955 -0.13536537 0.075273484
0.34275946 -0.37832654 0.37384337 0.22004932 0.121314585 -0.37752408 0.5012494 0.20243555
-0.49302772 0.33823404 0.007511338 0.30907393 0.10718673 -0.1872897 -0.093595825 0.39744937
0.36031833 -0.21840063 0.277473 0.03164442 0.23361173 0.11176886 -0.40258658 0.07964401
0.10057184 0.038217712 0.019955559 0.21222144 0.4988566 0.20612659 -0.031403843 0.09289045
-0.45691535 0.26349 0.5029535 0.5163731 -0.16062516 0.30171484 0.12641767 0.23011324

layer_3.weight f4 [128, 128]
00000000: a206 ba3d c996 80bc a609 cc3c f08e 02bb
00000010: 0e2f 2e3c 8225 1d3d 74ef 413d 8501 fb3c
00000020: bd66 8e3b f7fd ed3d 77cd 4c3d 30b5 bfbb
00000030: 77e8 e93c d896 e13c 3107 cf3c 8896 b5bc
00000040: 9216 62bb f64e aa38 3c92 59bd 3a84 8e3c
00000050: b7d4 f9bb 4603 803d ae61 bcbb 4717 fc3c
00000060: d345 e6b9 48a2 953a a8ec 663d ba64 09bd
00000070: c72f aa3c 414b a6bc 2466 f03c fa91 2d3d
00000080: 349e 413d 85ba 513c c391 0f3d 0f07 49bc
00000090: c581 a3ba 8114 403d e498 fdbb e1ad dd3c
000000a0: d4d8 5ab9 b335 0a3c 6e0f d13d 04c6 b0bc
000000b0: f0f1 2a3d 91d5 5a3d 3530 423d d756 7cbc
000000c0: 131a c73c fa9e 003c 20a3 713d 512b b93c
000000d0: a958 c43d fe7f c33b 0020 de3d 35ca 033d
000000e0: fb0a 83bc baf0 fb3c a59c c93c 1fb0 be3c
000000f0: bfd0 c23d 62ea 473a cade 2f3d bc00 ec3d
00000100: 966c c53c 0fad fb3b 0653 bc3d 302b c63b
00000110: b95a f7bb 5239 f33c 4055 063d a984 323d
00000120: 37a6 2b3d 6a85 233d bb6c 9b3b bfd5 713d
00000130: 5aaf ab3c 1087 fd3a 191a a13d 20b7 0f3d
00000140: bb94 203d e4e6 653c 58cd 883c 8aa6 2e3d
00000150: f6f7 063d b204 bc3c b277 75b9 073a 223c
00000160: 1f8e 3d3d 334f ffbb a50e cd3d 0065 023d
00000170: b5c6 283d 6822 e3bb 068f 403d c4ad 8f3d
00000180: 9298 913c 64d2 633d fc6a 223c 92fd e33c
00000190: 935a 083d b674 943d 93e0 4e3d 5411 de3c
000001a0: 1555 c93d 56e1 a23c 154c b73c d2e7 17bd
000001b0: 3eb6 283d bf2f bf3c bd11 653c d210 283d
000001c0: 93ca abbc 24f5 b1bc e343 c73c 3c57 d03d
000001d0: 6a50 b0ba 4cfb e63c eeef 953d 5bb5 b73d
000001e0: 9467 863c a83f 493d d9c8 b1bb 9491 4b3d
000001f0: d263 37bc 140d 493d a4d5 d73c 6036 503c
00000200: 0c22 7f3b f97e 9114 0a63 bf9a 0105 8298
00000210: ab2a 9014 f256 3523 1eb9 8414 c65c 58bc
00000220: ce8f 4e3c d335 5cbc 1eea 23a1 b079 7896
00000230: fca8 a6bc da08 2abc 05cd 0b95 b6d3 04a2
00000240: 1bfe 3196 b1c7 99bc 0e25 ea3c 1d11 1b97
00000250: 9021 e693 7fa0 f23b af53 14bc b06d a6a5
00000260: 2a15 3cbb 11aa d0ba c4b4 00bd 408b 2bbc
00000270: 9066 2114 61f2 89bb 6c99 5895 15da bdbb
00000280: 9ac8 82bb 18b2 79b9 9ae8 3c12 1904 8d95
00000290: 3570 bb15 483f 1c23 f652 9724 db00 c41c
000002a0: 46ef 681e fc9e c83b 207f 25bd 4a28 76bb
000002b0: 6216 9bbb aef6 adbc 8685 6f94 880d 133d
000002c0: ddbb a496 2a8e 8bbc 40db 1d3a c0a8 0014
000002d0: f958 6dba 9ef3 6313 c12b 65bb 367d c91c
000002e0: 04e3 05ba ed0d ac3c 454c 4c3c e72c 3ebc
000002f0: 1985 bb3c d6f2 7494 7377 95bb 23d9 923c
00000300: 5006 71bb be72 613c 42bf adbc 195a 3c93
00000310: 7a09 9ebb a637 af9e f857 3325 9c3d adbc
00000320: 20de 76bc 74a6 8ebc 4b1a 1416 cbf2 35b9
00000330: 9f5b 8417 5034 523a bec7 d7bb 28bd 83bc
00000340: 14c6 9d3c 9cb5 1e37 b02a 5e14 6454 2d27
00000350: f8f6 98bb 51cb 9bbb 7394 9fbc 68f3 823a
00000360: ec28 19bc 7264 de93 9042 97bb 32b4 99bb
00000370: ec37 9c12 7ff8 0414 8039 563c 86c2 93bb
00000380: bd8e 7b22 a735 1539 8d00 c517 82f0 aeba
00000390: e39b dd3b 12d9 6d3a b25e c693 2506 54bb
000003a0: 832d 78bc a1a7 d0b8 bbaa 7ebb 87ce 5abb
000003b0: 4445 9114 2e22 09a7 5caa aea5 7adf cd93
000003c0: 41bb 6023 24d9 94bb 7bb3 90bb 3e14 3b3b
000003d0: 3574 1694 7645 b1bc 9ca7 8d93 118b 9dbb
000003e0: d676 7622 c93d e0bc d283 91bb 533c ecbb
000003f0: 8be6 fdbb afbf 87a2 acf5 443a 7788 ed3c
0.09083296 -0.0156969 0.024906944 -0.0019921623 0.010631336 0.03836585 0.0473475 0.030640373
0.0043457435 0.116207056 0.050000634 -0.0058504567 0.02855323 0.027537748 0.025271984 -0.022166505
-0.0034498316 8.120939e-05 -0.053117976 0.017397035 -0.0076242345 0.06250624 -0.005748949 0.030772818
-0.00043921042 0.0011416161 0.056378037 -0.033543326 0.020774735 -0.020299556 0.02934558 0.042375542
0.047270015 0.012800817 0.03505112 -0.012269749 -0.0012474587 0.046894554 -0.0077391732 0.027060451
-0.00020870875 0.008435654 0.10208021 -0.021578796 0.041734636 0.05342633 0.047409255 -0.015401564
0.024304425 0.007850403 0.05899346 0.022603663 0.09587223 0.0059661856 0.10845947 0.03217526
-0.015996447 0.030754436 0.024610827 0.02327734 0.095124714 0.00076261733 0.042937078 0.115235776
0.02409963 0.0076805423 0.09195523 0.006047629 -0.007548657 0.029690418 0.032796144 0.043583546
0.04190656 0.039922155 0.0047431863 0.059041735 0.020957638 0.001934262 0.07866306 0.03508675
0.03920434 0.014032099 0.016699478 0.042639293 0.032951318 0.022951458 -0.00023409611 0.00990153
0.046278115 -0.0077914237 0.10012559 0.031834602 0.041205127 -0.006931592 0.047011398 0.07015565
0.017772947 0.055620566 0.009913202 0.027830873 0.033289503 0.07248823 0.05050714 0.027107872
0.09830681 0.01988284 0.022375146 -0.037086315 0.041189425 0.023338197 0.01398128 0.041031666
-0.020970618 -0.021723337 0.024324363 0.10172889 -0.00134517 0.028196 0.073211536 0.08970138
0.016406812 0.049132973 -0.0054255542 0.04969938 -0.011193233 0.049084738 0.026346989 0.0127082765
0.0038930206 1.469134e-26 -7.9155755e-23 -3.3609265e-24 1.4557114e-26 9.830441e-18 1.340161e-26 -0.013205713
0.012607528 -0.013440567 -5.55364e-19 -2.0071678e-25 -0.02034425 -0.010378087 -2.8232558e-26 -1.8001415e-18
-1.4378128e-25 -0.018771978 0.028582122 -5.01048e-25 -5.8093258e-27 0.0074043865 -0.009053155 -2.8870737e-16
-0.0028699138 -0.0015919824 -0.03142239 -0.0104702115 8.14865e-27 -0.004209802 -4.374188e-26 -0.0057938197
-0.0039911987 -0.00023812836 5.9609044e-28 -5.695591e-26 7.570573e-26 8.470177e-18 6.562635e-17 1.2970413e-21
1.2331458e-20 0.006122468 -0.04040444 -0.0037560635 -0.004732893 -0.02123579 -1.2092749e-26 0.035901576
-2.6614187e-25 -0.017035563 0.00060217455 6.4956286e-27 -0.00090540905 2.877154e-27 -0.0034968706 1.3333431e-21
-0.00051073753 0.021002734 0.012469356 -0.011607385 0.022890614 -1.2366743e-26 -0.0045613586 0.017925804
-0.0036777444 0.013760267 -0.021209363 -2.3773358e-27 -0.004822907 -1.8551861e-20 1.555558e-16 -0.021147542
-0.015067607 -0.017413355 1.1963641e-25 -0.00017351953 8.553428e-25 0.00080186594 -0.0065850904 -0.016081408
0.01925949 9.459818e-06 1.1216554e-26 2.4054321e-15 -0.004668113 -0.004754462 -0.019479966 0.0009990754
-0.009348135 -5.6139725e-27 -0.004616089 -0.0046906704 9.85877e-28 6.713304e-27 0.0130752325 -0.004509273
3.4092408e-18 0.00014229734 1.2730966e-24 -0.0013346823 0.006762968 0.00090731785 -5.0075604e-27 -0.0032352295
-0.01514757 -9.949436e-05 -0.0038859088 -0.003338726 1.4668579e-26 -1.9031098e-15 -3.0299628e-16 -5.196964e-27
1.2182717e-17 -0.0045424867 -0.004415927 0.0028546 -7.5959825e-27 -0.021639567 -3.575868e-27 -0.004807838
3.3402128e-18 -0.027373211 -0.004440763 -0.0072093396 -0.00774843 -3.6794776e-18 0.00075134146 0.028995736

layer_3.bias f4 [128]
00000000: 36ca cb3b 5826 02bd 5c75 a83c da3a 1fbb
00000010: 7ae6 013c 73cb 05bd f99f 043d 7e3c 783c
00000020: 3545 2f3d d8a8 50bd ab44 f1bc e807 20bd
00000030: 94ef 5fba abe1 b4bd 6a9f a8bd daae 86bd
00000040: f946 c13d 50b4 d33b d9e6 52bc c77a 24bc
00000050: 1d08 9d3d 5cdd 2bbc 119b febc f2c1 57bd
00000060: 4d8f 143b 9df9 023d 6d05 8b3d c343 5dbd
00000070: 30c6 2abd f3cd 283d 31c5 55ba 9185 8e3d
00000080: 64f3 673d 3789 00bc 44d7 713d 6fc3 dfbb
00000090: fc3d 94bb ad29 973d 0be0 e3bb ac96 4c3d
000000a0: c3c3 72bb 0e23 3bbb 3f61 8bbd d6ee 3fbd
000000b0: cd6b c1ba 6f2a aabd 3dc8 a33d 70d3 46bd
000000c0: f9d7 293c 69e3 7abb 01bd b9bc f6cb 073d
000000d0: 0555 843d b549 03bc fc1b a8bc 55fb 39bb
000000e0: 1cf7 31bc 7495 aebc 23f0 76bd 0627 92bc
000000f0: cd7e c5bb a07d 1fbc 76f0 4ebd 51af d1bc
00000100: 9545 fabc f816 853b fb73 cbbc 9b46 9a3d
00000110: 6c31 903d 7374 5cbd ef5f 8a3d 6bda 46bd
00000120: 1d59 9dbc 5632 c0bc 0b12 963d 64c3 c73d
00000130: 435d 8f3d ee28 fcbc 0fb7 843d 131c 963d
00000140: 0c94 9a3d e9f5 583d 60a7 9e3d 2bf9 f23b
00000150: 1af6 3b3d 07d6 723c 63de de3d 6d13 b73d
00000160: 2023 3dbd 7662 cdbc 1624 ea3d 065a 953d
00000170: b728 6d3d 5dd3 87bb b123 003e aafb 7b3d
00000180: b2ec d53d fc21 693d b470 b73d dbf1 09bd
00000190: bd19 05bd 24ce 10bd 5b91 c3bb 14fb 953a
000001a0: 334e c3bc 1fdd 3a3d 605d 00b9 8ed7 d4bb
000001b0: 2de6 cb3c 84ce 5b3c 1be6 903c ffe3 bf3d
000001c0: 522a 933d 15f2 613d 9866 f8bb bcaa 43bd
000001d0: 4ade 87bc fcbe 2cbc 3010 7e39 cfb4 c43d
000001e0: 2c07 323d af61 783b bef3 13ba 887a 91bc
000001f0: d85f 8ebb 3936 8cbc 18a0 c6bc a905 b4ba
0.006219174 -0.03177485 0.020563774 -0.0024296553 0.007928485 -0.032664727 0.032379124 0.015151141
0.04279061 -0.050942272 -0.029451689 -0.03907004 -0.0008542475 -0.08832105 -0.08233531 -0.06576319
0.09437365 0.006460704 -0.012872421 -0.010039038 0.07667563 -0.010489788 -0.0310798 -0.052675195
0.0022668422 0.03197633 0.06788144 -0.0540197 -0.041692913 0.041212033 -0.0008154689 0.069590695
0.0566286 -0.007845215 0.059043184 -0.0068287174 -0.0045239907 0.07380996 -0.0069541982 0.04994838
-0.0037042953 -0.002855483 -0.068056576 -0.04685863 -0.0014756859 -0.08308875 0.07997177 -0.048541486
0.010366433 -0.003828252 -0.022673132 0.033153497 0.06461529 -0.008013179 -0.020521156 -0.0028378565
-0.010862138 -0.0213115 -0.060287606 -0.017840873 -0.0060270787 -0.009734541 -0.05052229 -0.025596293
-0.030550757 0.004061576 -0.024835577 0.07532998 0.070406765 -0.053821992 0.06756579 -0.048548143
-0.019207532 -0.023461502 0.0732766 0.09754065 0.0700021 -0.030781236 0.06480228 0.073295735
0.07547769 0.052968893 0.07746768 0.007414957 0.045888998 0.014821536 0.10882261 0.08939252
-0.046176076 -0.025071364 0.11432664 0.07292561 0.057900157 -0.0041450695 0.12513615 0.061519302
0.10445537 0.056917176 0.08957043 -0.033677917 -0.03249525 -0.03535284 -0.0059682555 0.0011442625
-0.023841 0.045621034 -0.00012241816 -0.0064954227 0.02489003 0.013415936 0.017687848 0.09369659
0.07185806 0.055162508 -0.0075805895 -0.047770247 -0.016585488 -0.010543581 0.00024229358 0.09604799
0.04346387 0.003790002 -0.00056439254 -0.017758623 -0.0043449216 -0.0171157 -0.02424626 -0.0013734597

layer_5.weight f4 [2, 128]
00000000: 0006 2a3d 5b85 b5bc 7d09 303d 0c01 a13d
00000010: 800d 9d3c 52bc df3d b112 25ba 1403 adbb
00000020: 5c2b ed3c 8681 5933 f656 8a3a f2c9 8dbd
00000030: cd58 c0bb 6f67 a1bd 5326 dd3d 3f92 a6bb
00000040: beae f33d ac1f 9fbd 5118 0a3d c4f8 95bc
00000050: ea8a c9bd b44a f43d 011d cfbc 2524 97bd
00000060: f515 873d d081 1bbd fcb6 053d 7b1d f4bc
00000070: 3192 f7bc f1ae 94bd 7902 8abd 673d dd3a
00000080: 5748 4d3b 0d3d aeba 52a2 cbbd cba7 1a3d
00000090: 74e0 a5bc 2af0 fb3d 020d b339 b1ac f63d
000000a0: ce0f af3d 601d 10bc 3e91 933b 8d11 9595
000000b0: c71c 063b 8fbc 233d b2a9 0b3e b88c 45bd
000000c0: 0ae6 59bc 41a6 8c3a b9a7 2ebc 03a7 d43d
000000d0: 40cc fa3d 850b 9ebd d049 a7bd faa2 143e
000000e0: ae3f b23c aeb5 02be 8888 d7bc 9997 8c3b
000000f0: 5c8d 52bd ea8c 103e 8a9e 403d 475a 45bb
00000100: 91cf 10bc 75df ebbc a372 61bd f2c4 8d3d
00000110: dc93 5fbd 7a38 713b 4043 48bd 1f7b acbd
00000120: 2166 c5bd c0e6 643d 2ada e53d d219 c9bc
00000130: 2795 92bb 061b 723d 9b75 243e 2765 253d
00000140: ee05 203d 2cc8 e13b 9cd8 04be 0da9 2e3d
00000150: a026 a33d 5ab8 1cbd 2374 62bd 1dce 33bd
00000160: 34f9 3cbd ae33 6b3a c615 9d3d e3ae e83d
00000170: e673 613d edb9 84bb 17af 903d 54db a1bd
00000180: 0313 203e 2e30 8a3d 36ee 07be 1f60 bc3c
00000190: 2c92 6dbc 64ea 3dbd 2901 253c 8149 f3bd
000001a0: aae7 4d3c 04e6 2c3e 94bd 163b b08d 503c
000001b0: 57d0 aebd 342a 8533 3dd4 bdbd 5006 163e
000001c0: b5a8 9fbd 1fb7 a0bd 0ee1 e93d d286 863b
000001d0: 2cd8 08bd 9365 bdbb f4ba 673d 4c77 db3d
000001e0: 87e8 b33c 3bdb 9a3d e6e6 143b 3dee 30ba
000001f0: 1f3e 98bb b0dd 083e 8d36 6cbb 484b 113d
00000200: 597c 4c3d 7504 55bb 56a1 ff3d d545 e6bd
00000210: 695a 8d3d 7013 bcbd 8a88 2abd 56bb 663d
00000220: 093f 893d 21ba 7736 d436 763b bfc2 fd3d
00000230: 2cd6 ad3d 918e 1cbd 4d9a a9bd 18f8 0cbc
00000240: a2eb 983c a104 86bd c2e0 c7bd 90d0 01bd
00000250: 2adf ab3d cb72 58bd 987c 92bc 17c6 2ebd
00000260: 1c31 afbd e616 3f3d e958 203d d9f6 8b3c
00000270: b8d6 f53a 5632 e43d 3c1f 193e 413e 343e
00000280: 0084 9e3d f0c4 00bc 259e 043e 5a63 a13d
00000290: 2013 e6ba fa2b 9ebd 78f3 623a ff7e 0fbc
000002a0: a46e a13c a2f3 9cbc b64e d83c b886 213d
000002b0: 951f 523a c932 783d 53fb 4c3c 0e3f 83bd
000002c0: 16ed 143d bdfd 973b 9a53 9e1d 6c3f a1bd
000002d0: 9586 a7bc 5929 a83d 0891 1a3e 07db f4bd
000002e0: b345 fd3c 0fd5 0e3e 69b0 5fbd 63f1 233c
000002f0: f835 bf3d a0a5 54bd 3978 e7bd 3267 28bd
00000300: e4c5 783d 1153 b93c aa87 06bc df7d 3fbd
00000310: 2049 88bc 97ae 9a3b 6e5b 013c 8d91 7abc
00000320: b4f0 d33d 49dd b8bd 9ce7 0ebd c0de 0e3e
00000330: 3dd9 6a3d 97ea 22bd 71ef 23bd 294b b3bc
00000340: 1de9 023e d01a 183d 7d55 b53d c60d 8ebd
00000350: e45e 03bd e434 b63d 8649 b73d 1673 9a3d
00000360: 4493 cc3d ffa1 de3a babe ad3d 45a8 ab3d
00000370: d819 593d 9fe0 c937 0ddb e03d 00e0 58bd
00000380: 2bfb d0bd 55ff b33d 8160 1e3e 2b7f 253d
00000390: 59e9 9f3c e786 913d d5e3 e8bb 3132 043e
000003a0: f454 1b3b 666e 10be b018 c79c ede7 eabd
000003b0: bfe1 d83d 2261 6ab4 0afa f23d e9e1 25bd
000003c0: 5c9f 0e3e 03b1 24bd b6f5 e9bd 10ec d03b
000003d0: 4a58 723d 4306 b83b e027 ffbd 10f6 723d
000003e0: 85a5 d73d f044 d1bd a8e3 e937 3b61 d83b
000003f0: f6db 8e3b bd05 9cbd 66c4 3cbb 080a a23c
0.04150963 -0.022158315 0.0429778 0.07861528 0.019171476 0.10924591 -0.0006297036 -0.005279908
0.02895134 5.064205e-08 0.0010554481 -0.06923284 -0.005869961 -0.078810565 0.107983254 -0.005083352
0.11898564 -0.07769713 0.033714596 -0.018307097 -0.09840949 0.11928311 -0.025282385 -0.07379941
0.06595985 -0.037965596 0.03264521 -0.029799214 -0.030221077 -0.0725993 -0.06738753 0.0016879261
0.0031323635 -0.0013293341 -0.099430695 0.037757676 -0.02024863 0.12301667 0.00034151232 0.12044657
0.085479364 -0.008796066 0.004503398 -6.020831e-26 0.002046393 0.039974745 0.13638952 -0.048229903
-0.0132994745 0.00107307 -0.010660105 0.103834175 0.12245989 -0.07717041 -0.081683755 0.14515296
0.02175888 -0.12764618 -0.02631022 0.004290533 -0.051404342 0.14116254 0.047026195 -0.0030113624
-0.00883855 -0.028793076 -0.055040967 0.0692233 -0.05458437 0.0036807344 -0.04889226 -0.08421921
-0.0963862 0.055884123 0.11223252 -0.024548445 -0.0044733468 0.059107803 0.16060488 0.04037967
0.039068155 0.0068903174 -0.12973255 0.04264169 0.079663515 -0.03826175 -0.055286538 -0.043897737
-0.046136096 0.00089722394 0.076701686 0.11361482 0.05504217 -0.0040504844 0.07064646 -0.07903162
0.15632252 0.06747471 -0.13274464 0.022995053 -0.014500182 -0.04636611 0.010071077 -0.11879254
0.01256744 0.16884619 0.002300118 0.012729093 -0.085358314 6.200972e-08 -0.09268997 0.14650846
-0.0779585 -0.078474276 0.11419879 0.0041054273 -0.033409283 -0.005779931 0.056574777 0.107161134
0.021961464 0.07561346 0.0022720634 -0.00067493675 -0.0046460773 0.13365817 -0.0036043257 0.035472184
0.049923275 -0.0032503877 0.12481944 -0.11243788 0.0690201 -0.09183395 -0.04163412 0.056331
0.06701476 3.691421e-06 0.0037569301 0.123906605 0.08488116 -0.0382219 -0.08281384 -0.008604072
0.018667046 -0.06543852 -0.09759666 -0.03169304 0.083921745 -0.05284385 -0.017881677 -0.042669382
-0.08554289 0.046652697 0.03914729 0.01708548 0.0018756008 0.11142413 0.14953321 0.17601873
0.07740021 -0.007859454 0.12950952 0.07880278 -0.0017553307 -0.077232316 0.00086574955 -0.008758306
0.019706078 -0.019159142 0.02640472 0.03943512 0.00080155703 0.060595307 0.012511092 -0.06408511
0.036358915 0.0046384023 4.1908694e-21 -0.07873425 -0.020449916 0.082110114 0.15094388 -0.11955839
0.030917024 0.13948463 -0.054611597 0.010006282 0.093364656 -0.051915765 -0.113022275 -0.04111404
0.0607356 0.022622617 -0.008211056 -0.0467509 -0.016636431 0.0047205198 0.007895334 -0.015293491
0.10348645 -0.09026582 -0.03488885 0.1395216 0.05733608 -0.039774504 -0.04002327 -0.021886425
0.12784238 0.037134945 0.08854196 -0.06936221 -0.032072917 0.08896807 0.0894957 0.07541482
0.09989026 0.0016985534 0.08483644 0.08381704 0.053003162 2.4065665e-05 0.109792806 -0.052947998
-0.102041565 0.08788935 0.15466501 0.04040448 0.019520449 0.07105809 -0.007107238 0.12909772
0.002370176 -0.14104614 -1.3175097e-21 -0.114700176 0.10589933 -2.1828285e-07 0.118640974 -0.040498648
0.13927978 -0.040207874 -0.11423819 0.006375797 0.05916623 0.005615981 -0.124587774 0.059316695
0.10529617 -0.10218227 2.7881775e-05 0.0066033877 0.0043597175 -0.07618282 -0.0028803586 0.019780174

layer_5.bias f4 [2]
00000000: 42e6 dfbc aee5 72bb
-0.027331475 -0.003706317
